nohup: ignoring input
models.crnn_lang
Namespace(adadelta=False, adam=True, batchSize=4, beta1=0.5, cuda=True, decoder='', displayInterval=10, encoder='', experiment='./expr/attention2dcnn', imgH=320, imgW=320, keep_ratio=False, lr=0.0001, max_width=71, ngpu=1, nh=256, niter=500, random_sample=True, saveInterval=10, teaching_forcing_prob=0.5, trainlist='./data/train.txt', valInterval=1, vallist='./data/test.txt', workers=2)
Random Seed:  5711
nclass: 5994
CNN(
  (cnn): Sequential(
    (0): Conv2d(1, 64, kernel_size=(3, 3), stride=(1, 1), padding=(1, 1))
    (1): ReLU(inplace)
    (2): MaxPool2d(kernel_size=2, stride=2, padding=0, dilation=1, ceil_mode=False)
    (3): Conv2d(64, 128, kernel_size=(3, 3), stride=(1, 1), padding=(1, 1))
    (4): ReLU(inplace)
    (5): MaxPool2d(kernel_size=2, stride=2, padding=0, dilation=1, ceil_mode=False)
    (6): Conv2d(128, 256, kernel_size=(3, 3), stride=(1, 1), padding=(1, 1))
    (7): BatchNorm2d(256, eps=1e-05, momentum=0.1, affine=True, track_running_stats=True)
    (8): ReLU(inplace)
    (9): Conv2d(256, 256, kernel_size=(3, 3), stride=(1, 1), padding=(1, 1))
    (10): ReLU(inplace)
    (11): MaxPool2d(kernel_size=(2, 2), stride=(2, 1), padding=(0, 1), dilation=1, ceil_mode=False)
    (12): Conv2d(256, 512, kernel_size=(3, 3), stride=(1, 1), padding=(1, 1))
    (13): BatchNorm2d(512, eps=1e-05, momentum=0.1, affine=True, track_running_stats=True)
    (14): ReLU(inplace)
    (15): Conv2d(512, 512, kernel_size=(3, 3), stride=(1, 1), padding=(1, 1))
    (16): ReLU(inplace)
    (17): MaxPool2d(kernel_size=(2, 2), stride=(2, 1), padding=(0, 1), dilation=1, ceil_mode=False)
    (18): Conv2d(512, 512, kernel_size=(2, 2), stride=(1, 1))
    (19): BatchNorm2d(512, eps=1e-05, momentum=0.1, affine=True, track_running_stats=True)
    (20): ReLU(inplace)
  )
  (rnn): Sequential(
    (0): BidirectionalLSTM(
      (rnn): LSTM(512, 256, bidirectional=True)
      (embedding): Linear(in_features=512, out_features=256, bias=True)
    )
    (1): BidirectionalLSTM(
      (rnn): LSTM(256, 256, bidirectional=True)
      (embedding): Linear(in_features=512, out_features=256, bias=True)
    )
  )
  (seq_encoder): Sequential(
    (0): Conv2d(512, 256, kernel_size=(3, 3), stride=(1, 1), padding=(1, 1))
    (1): ReLU(inplace)
    (2): MaxPool2d(kernel_size=2, stride=2, padding=0, dilation=1, ceil_mode=True)
  )
  (rescale): Upsample(size=(16, 64), mode=bilinear)
  (x_onehot): Embedding(32, 32)
  (y_onehot): Embedding(8, 8)
)
SequencePredictor(
  (seq_decoder): BahdanauAttnDecoderRNN(
    (embedding): Embedding(5994, 5994)
    (word_linear): Linear(in_features=5994, out_features=256, bias=True)
    (attn): Attn(
      (attn): Linear(in_features=552, out_features=256, bias=True)
    )
    (rnn): GRUCell(552, 256)
    (out): Linear(in_features=256, out_features=5994, bias=True)
  )
)
[0/500][10/36] Loss: 122.522827 time elapsed 3
[0/500][20/36] Loss: 107.155983 time elapsed 1
[0/500][30/36] Loss: 114.055199 time elapsed 1
Start val
pred:[' ', ' ', ' ', ' ', ' ', ' ', ' ', ' ', ' ', ' ', ' ', ' '], gt: 广德新三联电子有限公司         
pred:[' ', ' ', ' ', ' ', ' ', ' ', ' ', ' ', ' ', ' '], gt: 天下行租车有限公司           
pred:[' ', ' ', ' ', ' ', ' ', ' ', ' ', ' ', ' ', ' ', ' '], gt: 邢台华赢实业有限公司          
…
